neural_network/model.pt (torch_old, 9360 bytes, 6 tensors)

weight f8 [11, 11]
-0.27900050518271247 0.15817497188333735 -0.24815744161605835 -1.7541798190395268 -0.4446496960315819 -0.5983415277911954 -2.302347218989337 -1.3460384936372298
-1.748850952701961 0.07982198576731289 -0.09112067520618439 6.922346575835999 -0.2880173401693457 -0.19968557357788086 37.11039196501241 9.319924044453497
17.10779658815607 63.48062678218279 41.21955326448197 -0.12840657373142017 0.10973084788290509 0.2508375398445123 -0.062051087617874146 0.22562450170516968
-0.04859861731529236 0.03190416097640991 0.27301132678985596 -0.27970314025878906 -0.18981283903121948 -0.0763321965932846 -0.11752910912036896 0.2605060338973999
-0.19543352723121643 0.11176108194762621 -0.19453938997712394 -0.2823837697505951 0.9714695111423842 0.5437908232703685 0.7492588318724019 2.2340490032815032
1.3565579430765793 1.383277082900325 0.05113830159120619 -0.2815195620059967 -0.21786192059516907 -0.1554381400346756 0.1902349591255188 0.1767825186252594
-0.13371878862380981 -0.01087924838066101 0.1928347945213318 0.2997424006462097 0.11966449022293091 0.04073202610015869 0.20215922594070435 -0.14285458674362228
0.058496561599018185 -0.2337634116411209 -0.06795242741447605 -0.11415363593330037 0.2212661743245134 0.41720532583668846 0.0063653075527936795 0.30609299032444265
0.18171758518660322 -0.003308160062523876 0.011512160301208496 0.06986159086227417 0.18705058097839355 0.2895094156265259 -0.23235175013542175 -0.11049479246139526
0.11849695444107056 0.24981701374053955 0.26237738132476807 0.266040563583374 0.06000515818595886 -0.26218903064727783 0.027736783027648926 -0.18862710893154144
-0.2809947431087494 0.2678905725479126 0.22925710678100586 -0.3007659912109375 0.0564345121383667 -0.05079260468482971 -0.04961705207824707 -0.1380188912153244
0.11594805121342672 -0.17858622968201834 0.11053144931793213 0.15247672795726716 0.215843379496578 0.11273846030040141 -0.2984164059228023 -0.19558948278885718
0.15054914354781493 0.06310674548114223 -0.23520419001579285 -0.17361611127853394 0.2836465835571289 0.203163743019104 -0.13146652281284332 -0.0758858174085617
-0.2872191369533539 -0.005419403314590454 -0.22705580294132233 -0.2325727939605713 -0.016613155603408813 0.045270442962646484 -0.12346027735734766 0.17891012093446731
-0.18348145484924316 0.2736757685299707 0.20664932675713346 -0.25421618918162536 -0.07488062370442851 0.013709912639248109 0.04399502305666054 0.07151151267908946
0.11832329878173381
00000000: 50f1 54ef 24db d1bf 866f a4d5 133f c43f
00000010: 0000 0080 9fc3 cfbf 593f a1db 1e11 fcbf
00000020: 7272 a8ff 2375 dcbf a275 b621 9d25 e3bf
00000030: 1ac4 cc04 356b 02c0 9c43 d5a8 5f89 f5bf
00000040: 10ef f622 4bfb fbbf b654 5fb2 366f b43f
00000050: 0000 0040 af53 b7bf 3d2c eb9e 7bb0 1b40
00000060: eb53 2d48 e06e d2bf 0000 0000 4c8f c9bf
00000070: 18bc eb52 218e 4240 7e43 9815 cda3 2240
00000080: 2ec0 a48e 981b 3140 4587 ab2d 85bd 4f40
00000090: 0e57 4552 1a9c 4440 5049 6269 a06f c0bf
000000a0: 3ff9 0423 5217 bc3f 1671 8fe5 b80d d03f
000000b0: 0000 0000 29c5 afbf 0000 0080 43e1 cc3f
000000c0: 0000 0000 ebe1 a8bf 0000 0000 be55 a03f
000000d0: 0000 0080 0479 d13f 0000 0000 a8e6 d1bf
000000e0: 0000 0080 c94b c8bf 0000 00c0 818a b3bf
000000f0: 0000 0040 6316 bebf 0000 0080 21ac d03f
00000100: 0000 0040 f703 c9bf ce3d eecf 5f9c bc3f
00000110: 1826 deae aae6 c8bf 0000 0060 9312 d2bf
00000120: 5f5d 6d3a 4716 ef3f eef4 3903 bc66 e13f
00000130: 3532 64a8 edf9 e73f 2b0b 7615 55df 0140
00000140: 7949 0a1a 76b4 f53f 92cf 8526 e721 f63f
00000150: 887e d0a9 cc2e aa3f 0000 00a0 6a04 d2bf
00000160: 0000 0040 e6e2 cbbf 0000 00a0 65e5 c3bf
00000170: 0000 0080 9e59 c83f 0000 0040 cfa0 c63f
00000180: 0000 0080 b21d c1bf 0000 0000 dc47 86bf
00000190: 0000 0080 cfae c83f 0000 00c0 fa2e d33f
000001a0: 0000 0000 55a2 be3f 0000 0000 d4da a43f
000001b0: 0000 0080 5ae0 c93f bcdf 1221 0f49 c2bf
000001c0: 3212 fee5 42f3 ad3f 0000 00a0 f5eb cdbf
000001d0: 30d2 6d8d 5465 b1bf 6d92 0d35 2c39 bdbf
000001e0: 2ea8 3733 7352 cc3f e2e0 8bf7 7db3 da3f
000001f0: 38ac 4a3c 8212 7a3f e39c be0d 0797 d33f
00000200: e505 be96 8542 c73f f840 e9e8 b619 6bbf
00000210: 0000 0000 b093 873f 0000 0000 73e2 b13f
00000220: 0000 0000 46f1 c73f 0000 0080 5287 d23f
00000230: 0000 00c0 b3bd cdbf 0000 0000 6349 bcbf
00000240: 0000 0000 d155 be3f 0000 0000 01fa cf3f
00000250: 0000 0080 caca d03f 0000 0000 cf06 d13f
00000260: 0000 0000 ffb8 ae3f 0000 0080 b4c7 d0bf
00000270: 0000 0000 0867 9c3f 0000 00e0 ee24 c8bf
00000280: 0000 0060 d1fb d1bf 0000 0080 1e25 d13f
00000290: 0000 0000 4c58 cd3f 0000 0000 c03f d3bf
000002a0: 0000 0000 fce4 ac3f 0000 0000 7d01 aabf
000002b0: 0000 0000 6867 a9bf 0000 0060 9aaa c1bf
000002c0: 3c21 ff7f c5ae bd3f fd06 00e0 e9db c6bf
000002d0: 0000 0000 ca4b bc3f 6720 fd7f 5b84 c33f
000002e0: 4a7a ff7f c1a0 cb3f b4da fd7f 6ddc bc3f
000002f0: 9ccf 0120 4119 d3bf 6a85 0280 1309 c9bf
00000300: 3545 fdbf 3145 c33f ce9d ff7f c327 b03f
00000310: 0000 00c0 2b1b cebf 0000 0080 0d39 c6bf
00000320: 0000 0000 4427 d23f 0000 0000 4501 ca3f
00000330: 0000 0020 e5d3 c0bf 0000 00c0 406d b3bf
00000340: 0000 0060 cc61 d2bf 0000 0000 a832 76bf
00000350: 0000 0020 2a10 cdbf 0000 0000 f2c4 cdbf
00000360: 0000 0000 0a03 91bf 0000 0000 b02d a73f
00000370: 90da 9abd 179b bfbf eb20 2bdf 86e6 c63f
00000380: 0000 0000 527c c7bf 19cf e25e e783 d13f
00000390: 71c6 1432 7c73 ca3f 6e86 a9fa 1345 d0bf
000003a0: 6923 ea65 602b b3bf eb2b 5553 f113 8c3f
000003b0: 9924 6e02 8486 a63f 7d82 3e18 944e b23f
000003c0: 8454 9f8a 6f4a be3f

bias f8 [11]
-0.00038897887690658066 0.3183248350209433 0.1426718533039093 -0.27252063825834183 -0.1787077933549881 -0.07316555384154513 -0.1468702107667923 -0.10547873377799988
-0.24712523818021315 -0.06413602828979492 0.064451178945525
00000000: 8837 1e8e fb7d 39bf dbd9 fa20 6f5f d43f
00000010: 0000 0040 1243 c23f f87e 3367 fa70 d1bf
00000020: 0000 00a0 e5df c6bf 2a73 f14c faba b2bf
00000030: 0000 00a0 a4cc c2bf 0000 0080 a700 bbbf
00000040: 6807 00c0 cca1 cfbf 0000 0000 386b b0bf
00000050: f979 c259 df7f b03f

weight f8 [11, 11]
-2.5481040711997536 -1.5340310808854938 -2.2058855391002576 2.2124576953813677 2.4301023281074445 -2.444893428934159 2.482742945001213 -2.230009833619682
-2.136117169902402 -2.2302461064315717 2.7079688451391233 3.456426393817054 1.990495129858795 3.385052819175518 -3.173717907751473 -3.5299470316598778
3.3737660093182273 -3.7590441595743065 3.245822478456295 3.2735144387910653 3.466834891958034 -3.362623890837547 0.9149308277012939 -0.0745396527741338
0.8779988559668597 -1.187780549433884 -0.7536640885060366 0.5670733444013707 -0.7479971918051775 0.630721938866907 0.4193603071158561 0.42958518590384137
-0.7370953545401826 -0.7286058968789498 -0.6746420522229584 -0.6420675342190949 0.541875001147535 0.7352984671700684 -0.49071564765570125 0.6326625620234696
-0.48338095594532166 -0.6464531545747015 -1.027748835574456 0.9464088569503176 0.12086418423331377 0.47052452547357454 0.8219966987153022 0.17094012622476876
-0.5485385159035652 0.5419733909892396 -0.3655790785332654 0.6650574008007972 0.7257699767132691 0.6873735884209602 -0.653397540982381 0.379836205312393
-0.05451704159105365 0.5258888349061432 -0.19741754508602166 -0.15621510596327187 0.20528867555011138 -0.3490693017964776 0.14997104258589153 0.19653945119432265
0.1868243560319363 -0.2594748836423374 0.06690252660021016 -0.7964218411466779 0.07513373426922752 -0.42795826768036743 -0.2903681927157301 -1.0300957630725482
-0.23752575449475222 0.273487591071214 -0.04593305953016508 0.316771113200273 0.04657786427360092 1.0432156529205676 -1.5624063563826291 0.7617709227380076
-1.4480906603688166 -0.8902226575192728 -1.570603861147249 -0.7829034068164149 0.5855304338511743 0.6633425839719933 1.0648423769053736 -1.0660630399947717
-0.7568487402503383 0.6916088238649666 -0.5056920077387489 0.8436043529602686 0.35331633945147217 0.3775097722488929 0.3998483445231122 -0.7001973565403617
-0.7157710518424036 -0.6592590834681191 0.6179040235796921 0.6503008741670574 -0.14838747351580345 0.9963243142380663 -0.13741787274675776 -0.9168824390187214
-0.062255809248637654 -0.9393999413266132 0.5984746650471637 0.8149441019310915 0.825819416405196 -0.5000603656799345 1.220805544729397 0.8083338027758138
1.4038062918351149 -1.6034540872614695 -1.0305942523644422 0.997535740100443 -1.2444255578682875 1.197319142834947 1.08978325905065 1.2884322035477616
-0.9992495326321666
00000000: f3db 2463 8462 04c0 2d36 b72c 648b f8bf
00000010: 4f3d 4951 a7a5 01c0 7192 2b05 1db3 0140
00000020: 4f3d 497d d970 0340 f2d1 3b49 248f 03c0
00000030: 4f3d 4955 a8dc 0340 4f3d 4965 0fd7 01c0
00000040: 383d 4999 c416 01c0 4f3d 4945 8bd7 01c0
00000050: e6ac e391 eba9 0540 c0cd 93e1 c2a6 0b40
00000060: e873 d96b 11d9 ff3f 4bbb 8c92 9614 0b40
00000070: 4e2d e436 c663 09c0 4bbb 8cde 543d 0cc0
00000080: 9706 9308 79fd 0a40 4bbb 8cbe 8512 0ec0
00000090: 4bbb 8cc6 71f7 0940 3abb 8c56 2830 0a40
000000a0: 4abb 8cee 13bc 0b40 102a bf5a a7e6 0ac0
000000b0: 5d89 e203 1d47 ed3f b28b ebda 0715 b3bf
000000c0: ceb2 890e 9118 ec3f 8b4b 6a2d 2601 f3bf
000000d0: ceb2 8926 041e e8bf 3464 94ff 7625 e23f
000000e0: ceb2 89ce 97ef e7bf ceb2 89c6 df2e e43f
000000f0: 4966 139d ccd6 da3f a565 13dd 527e db3f
00000100: 5413 39ff 4896 e7bf 2192 5850 bd50 e7bf
00000110: ccb9 d9ed aa96 e5bf 826b a936 d18b e4bf
00000120: 235b 0e3e 0a57 e13f 826b a9a6 9087 e73f
00000130: bf44 949a e267 dfbf 826b a98e c53e e43f
00000140: 03d7 52ad b6ef debf 876b a986 beaf e4bf
00000150: bdb5 54c3 a871 f0bf 27e2 273a fb48 ee3f
00000160: 6e30 8a86 f4f0 be3f b7fe 37e6 121d de3f
00000170: bade 4c05 cc4d ea3f b1d0 dab5 5de1 c53f
00000180: bade 4ca5 a08d e1bf 6f3b b394 d857 e13f
00000190: 7dbd 99ca a565 d7bf bade 4c75 2648 e53f
000001a0: 99de 4cf5 8139 e73f bade 4ce5 f6fe e53f
000001b0: f3cb b9f5 a1e8 e4bf 71d2 e983 3c4f d83f
000001c0: 629f 6a5d a8e9 abbf 161c 68d2 14d4 e03f
000001d0: 6a89 e665 fa44 c9bf 4e70 a049 dbfe c3bf
000001e0: 820a dd39 e646 ca3f 1f38 d0c4 2657 d6bf
000001f0: 4f70 a049 4032 c33f 8a6f a069 3428 c93f
00000200: 4a70 a049 dce9 c73f c624 d88a 3c9b d0bf
00000210: 3386 c423 8620 b13f 5e71 31a8 497c e9bf
00000220: 6f3f 83e3 f63b b33f 075c ef12 ab63 dbbf
00000230: dacf e078 6495 d2bf ef50 e2b1 457b f0bf
00000240: b09f c171 3e67 cebf d8cf e018 d280 d13f
00000250: c87c f9b8 8984 a7bf dbcf e058 fa45 d43f
00000260: d597 8bc7 0dd9 a73f 8981 7fe5 02b1 f03f
00000270: 579d bbce 9dff f8bf f482 066a 6d60 e83f
00000280: 72d5 be1c 612b f7bf f382 063a b47c ecbf
00000290: 8594 a983 3121 f9bf f482 0672 8b0d e9bf
000002a0: f382 0652 aabc e23f e685 063a 1a3a e53f
000002b0: 7a41 0329 9809 f13f b807 441e 980e f1bf
000002c0: aa9b 6cd9 1a38 e8bf 7500 04d4 a821 e63f
000002d0: a7c4 6201 a12e e0bf 7448 578e cefe ea3f
000002e0: 5789 c522 bc9c d63f 8cae 6ebf 1e29 d83f
000002f0: 5789 c582 1d97 d93f a7c4 6249 0468 e6bf
00000300: cac5 62b1 98e7 e6bf a8c4 6281 a618 e5bf
00000310: 4fee aaa8 dec5 e33f 7772 63c7 43cf e43f
00000320: ee76 f158 5cfe c2bf 8196 3b87 e3e1 ef3f
00000330: c4a6 aaaa e896 c1bf 8296 3bd7 1957 edbf
00000340: a7f6 6a51 fedf afbf 8296 3b77 900f eebf
00000350: 8296 3b57 b426 e33f 8e96 3ba7 0514 ea3f
00000360: 8296 3bd7 1c6d ea3f 36e0 9398 7e00 e0bf
00000370: 2c36 1665 6b88 f33f c68c e5d9 dedd e93f
00000380: 159d 1596 fd75 f63f 05cf 1679 bfa7 f9bf
00000390: 159d 1566 507d f0bf 6652 8a12 d0eb ef3f
000003a0: 159d 15c6 2ae9 f3bf 159d 151e 3828 f33f
000003b0: 089d 1592 c06f f13f 169d 1516 6b9d f43f
000003c0: a059 e627 daf9 efbf

bias f8 [11]
2.3335850036598127 -3.706997979802883 -0.8014321001952227 0.4568041389096466 -0.4447917440911267 -0.5073216304307401 -0.26366039447316103 -0.9950752743062296
0.787964853245417 -0.5665902928128193 -1.0171646106408094
00000000: 4f3d 499d 2eab 0240 4bbb 8c8e eea7 0dc0
00000010: ceb2 89ee 54a5 e9bf 03d7 526d 473c dd3f
00000020: 7dbd 99ca 7777 dcbf 131c 6892 fa3b e0bf
00000030: d8cf e0d8 cfdf d0bf f382 061a a8d7 efbf
00000040: a7c4 6211 0237 e93f 8296 3bf7 8121 e2bf
00000050: 159d 1566 4e46 f0bf

weight f8 [5, 11]
-1.8143397083360884 1.660986830988986 1.7102875616847024 -1.87429690699198 2.295770126648668 1.7710738773097996 1.0930477073147304 0.8432053099972036
-2.0802067206109776 2.673257789338315 1.4246918644722002 -4.658797980181603 4.387410688156729 4.015042305259569 -4.508152096645827 4.869404905775086
4.020914707887358 -1.6986299890081893 -2.3217584616139937 -3.9287520273672887 5.5130976940241885 4.128378099268678 -2.993806748935949 1.0602603489198266
-0.9420797653900151 0.9634474676355674 3.562738060427288 -0.7321029112160218 -3.1706076157032297 -1.491988185651496 0.9053963558028596 2.525940744732725
-0.2438420322475964 -1.5644167682753918 1.469992115318469 1.2798354992449954 -1.5246356705941488 1.5111671624496292 1.1961140693130314 1.6401866933601246
1.5925015935376485 -1.6128484679245925 1.5168234889882377 1.494967304537228 -0.6817975658395221 1.3314243654946507 1.715519116600413 -2.070169759081848
0.3117596089737395 1.9799523277158249 1.6533146250592567 1.7221704755864118 -2.2394117808611793 0.19670136195986182 2.1494553616648697
00000000: ee33 f212 8907 fdbf 32f3 62ed 6693 fa3f
00000010: e40f 837d 565d fb3f 6264 e8c0 1efd fdbf
00000020: edb7 68ba bc5d 0240 3187 dd8f 5156 fc3f
00000030: 1b27 be97 1f7d f13f 8b0c c8b3 89fb ea3f
00000040: 688c cf6b 43a4 00c0 f0e1 d7fa d462 0540
00000050: da90 4cb2 89cb f63f 1034 0ef0 9ba2 12c0
00000060: 1a04 2f63 b58c 1140 cf95 0440 670f 1040
00000070: 5df3 f105 5908 12c0 d224 9547 457a 1340
00000080: c186 49aa 6a15 1040 5fb8 aca3 962d fbbf
00000090: 3bbf ae19 f692 02c0 f116 fd8a 156e 0fc0
000000a0: 97f2 5d7b 690d 1640 c686 678c 7583 1040
000000b0: b8ca e9f3 50f3 07c0 03b3 3d8e d3f6 f03f
000000c0: d959 d276 8425 eebf bb14 9dc8 8fd4 ee3f
000000d0: 55ff edcf 7c80 0c40 a655 9f15 636d e7bf
000000e0: b926 8f86 675d 09c0 cc43 f600 2fdf f7bf
000000f0: 57e8 42c7 01f9 ec3f 6716 d26b 2035 0440
00000100: 9d61 f238 3736 cfbf bae8 90e0 d907 f9bf
00000110: 20bb ca73 1685 f73f fe45 d8c9 347a f43f
00000120: 3745 785f e864 f8bf 182a 589e bd2d f83f
00000130: 58c2 9f81 4823 f33f cf0e f566 343e fa3f
00000140: 4327 71f3 e27a f93f be3c f231 3ace f9bf
00000150: 4325 f0b4 e844 f83f 073a 19d6 62eb f73f
00000160: aebd f820 49d1 e5bf 6c5a aea2 834d f53f
00000170: a662 572c c472 fb3f dc65 a329 b58f 00c0
00000180: a361 3093 def3 d33f 4fdb f27d e2ad ff3f
00000190: 540c 4a09 fa73 fa3f 8a7c eca0 028e fb3f
000001a0: 699b 48b9 50ea 01c0 361f 599e 822d c93f
000001b0: ef7f 14a7 1532 0140

bias f8 [5]
-2.837906896605413 -6.226979903313497 -1.8394718601948974 -1.8251063078757006 -0.19331278709201016
00000000: d51a f087 08b4 06c0 a652 766b 6de8 18c0
00000010: 9d30 970b 7a6e fdbf 83ca 00ac a233 fdbf
00000020: c8b9 3a31 79be c8bf
