neural_network/model.pt (torch_old, 9349 bytes, 6 tensors)

weight f8 [11, 11]
0	0xbfc2b1bb625054be	-0.14604894924619843
1	0x3fc47bb4f207dc55	0.16002523248582415
2	0xbfcfc39f80000000	-0.24815744161605835
3	0xbff04b8467783db3	-1.0184368173394034
4	0xbfd25d912be070dd	-0.28696088108860157
5	0xbfd16859719a7122	-0.2719939813048474
6	0xbff32ac2453a93de	-1.1979391769648298
7	0xbfe2b3b35b22f5a3	-0.5844361095438909
8	0xbfed881f19247e0a	-0.9228663912835497
9	0x3fb46d10388be32f	0.07978917484787183
10	0xbfb753af40000000	-0.09112067520618439
11	0x3fd67c4bcf78bff8	0.35133643399149106
12	0xbfd26f5d021dd346	-0.28804707724275536
13	0xbfc98f4c00000000	-0.19968557357788086
14	0x400086488cef3929	2.06556806664516
15	0x3fe1e05b1a56e746	0.5586371912424759
16	0x3ff1e4b0be5deb13	1.1183326183515347
17	0x400f3ac993d8245f	3.9037047911011054
18	0x4001dac7c3b41363	2.2318263329820396
19	0xbfc0ca422b06dd20	-0.13117243863028083
20	0x3fbc09ba360385e6	0.10952342814154967
21	0x3fd0066a005d37ca	0.2503914836460096
22	0xbfafc52900000000	-0.062051087617874146
23	0x3fcce14380000000	0.22562450170516968
24	0xbfa8e1eb00000000	-0.04859861731529236
25	0x3fa055be00000000	0.03190416097640991
26	0x3fd1790480000000	0.27301132678985596
27	0xbfd1e6a800000000	-0.27970314025878906
28	0xbfc84bc980000000	-0.18981283903121948
29	0xbfb38a81c0000000	-0.0763321965932846
30	0xbfbe166340000000	-0.11752910912036896
31	0x3fd0ac2180000000	0.2605060338973999
32	0xbfc903f740000000	-0.19543352723121643
33	0xbf90978ec8cb3478	-0.016203146939734542
34	0xbfc9f450a8f83590	-0.2027684044882503
35	0xbfd2129360000000	-0.2823837697505951
36	0x3fd8ab46c644f7aa	0.38545388567205896
37	0x3fd97ff94b3466ce	0.3984359011097752
38	0x3fdbdc1bb235aced	0.4353093376473243
39	0x3ff2aee552ae6af0	1.1676991681803734
40	0x3fe57fb97914c1f0	0.6718413700928618
41	0x3fe321cde1da9625	0.5978764926155163
42	0x3faa2663a9310e80	0.05107413711860165
43	0xbfd2046aa0000000	-0.2815195620059967
44	0xbfcbe2e640000000	-0.21786192059516907
45	0xbfc3e565a0000000	-0.1554381400346756
46	0x3fc8599e80000000	0.1902349591255188
47	0x3fc6a0cf40000000	0.1767825186252594
48	0xbfc11db280000000	-0.13371878862380981
49	0xbf8647dc00000000	-0.01087924838066101
50	0x3fc8aecf80000000	0.1928347945213318
51	0x3fd32efac0000000	0.2997424006462097
52	0x3fbea25500000000	0.11966449022293091
53	0x3fa4dad400000000	0.04073202610015869
54	0x3fc9e05a80000000	0.20215922594070435
55	0xbfc67e5a2976cd74	-0.17573096298802293
56	0x3facd8a0995d5f04	0.056340235444336556
57	0xbfcdebf5a0000000	-0.2337634116411209
58	0xbfc9f4e53d25e2f2	-0.2027861164640608
59	0xbfc3a7bffb65bdaf	-0.15355682158722803
60	0x3fc2064af856a9d4	0.1408170425978158
61	0x3fc177a37da34641	0.13646358141572715
62	0xbfc5a83c218d604b	-0.16919662130635724
63	0x3fba24ca989926b9	0.10212389207404272
64	0x3fc5561de72914e3	0.16669057643063132
65	0xbfa22fe8b913805d	-0.03552176722746545
66	0x3f8793b000000000	0.011512160301208496
67	0x3fb1e27300000000	0.06986159086227417
68	0x3fc7f14600000000	0.18705058097839355
69	0x3fd2875280000000	0.2895094156265259
70	0xbfcdbdb3c0000000	-0.23235175013542175
71	0xbfbc496300000000	-0.11049479246139526
72	0x3fbe55d100000000	0.11849695444107056
73	0x3fcffa0100000000	0.24981701374053955
74	0x3fd0caca80000000	0.26237738132476807
75	0x3fd106cf00000000	0.266040563583374
76	0x3faeb8ff00000000	0.06000515818595886
77	0xbfd0c7b480000000	-0.26218903064727783
78	0x3f9c670800000000	0.027736783027648926
79	0xbfc824eee0000000	-0.18862710893154144
80	0xbfd1fbd160000000	-0.2809947431087494
81	0x3fd1251e80000000	0.2678905725479126
82	0x3fcd584c00000000	0.22925710678100586
83	0xbfd33fc000000000	-0.3007659912109375
84	0x3face4fc00000000	0.0564345121383667
85	0xbfaa017d00000000	-0.05079260468482971
86	0xbfa9676800000000	-0.04961705207824707
87	0xbfc1aa9a60000000	-0.1380188912153244
88	0x3fbdaec58000010f	0.1159480512142219
89	0xbfc6dbe9dfffffed	-0.17858622968196816
90	0x3fbc4bca00000000	0.11053144931793213
91	0x3fc3845b80000396	0.15247672796251938
92	0x3fcba0c180000088	0.21584337949753185
93	0x3fbcdc6d80000268	0.11273846030236145
94	0xbfd319411ffffe25	-0.2984164059161876
95	0xbfc909137ffffd1f	-0.19558948278425078
96	0x3fc34531c0000310	0.1505491435528019
97	0x3fb027c3800000f7	0.06310674548149452
98	0xbfce1b2bc0000000	-0.23520419001579285
99	0xbfc6390d80000000	-0.17361611127853394
100	0x3fd2274400000000	0.2836465835571289
101	0x3fca014500000000	0.203163743019104
102	0xbfc0d3e520000000	-0.13146652281284332
103	0xbfb36d40c0000000	-0.0758858174085617
104	0xbfd261cc60000000	-0.2872191369533539
105	0xbf7632a800000000	-0.005419403314590454
106	0xbfcd102a20000000	-0.22705580294132233
107	0xbfcdc4f200000000	-0.2325727939605713
108	0xbf91030a00000000	-0.016613155603408813
109	0x3fa72db000000000	0.045270442962646484
110	0xbfbf9c21c1b15100	-0.12347613314461015
111	0x3fc6e6866adef9eb	0.17891006677923768
112	0xbfc77c5200000000	-0.18348145484924316
113	0x3fd1828a5e9874b5	0.2735925601753693
114	0x3fca72cb75bd20b0	0.20662825821842068
115	0xbfd045b5d46f622e	-0.25425477738966407
116	0xbfb334c87491a055	-0.07502415510100609
117	0x3f8be2daf8c7fb2a	0.013616286008070928
118	0x3fa685d8e05ef838	0.04398992289451126
119	0x3fb24e87d38136c4	0.07151078141870487
120	0x3fbe4a54564fa441	0.11832167727665512

bias f8 [11]
0	0x3f815b0e8610b6ad	0.00847445818552769
1	0xbfbea771eacebbbe	-0.11974250776869064
2	0x3fc2431240000000	0.1426718533039093
3	0xbfd1fcbfcb80d8c0	-0.28105158685083254
4	0xbfc6dfe5a0000000	-0.1787077933549881
5	0xbfb34a9de7a970ba	-0.07535731225783851
6	0xbfc2cca4a0000000	-0.1468702107667923
7	0xbfbb00a780000000	-0.10547873377799988
8	0xbfcfa1ccbffffff9	-0.24712523818016033
9	0xbfb06b3800000000	-0.06413602828979492
10	0x3fb07fcd9dc0fa99	0.0644501218930408

weight f8 [11, 11]
0	0x3fdd217a2b35dbcb	0.4551682874657074
1	0xbfe5a3a457a47a83	-0.6762258254783123
2	0x3feac73f08f401ea	0.836822049605016
3	0xbfe6ca75c1a88dd9	-0.712214353789416
4	0xbfe39a7658f401ea	-0.6126052605978292
5	0x3fe30ae9597f8bc3	0.5950819728862985
6	0xbfe1eb3af8f401ea	-0.5599646437040608
7	0x3fea019eb8f401ea	0.8126977550855916
8	0x3fed02c9e8f40209	0.906590418802865
9	0x3fe9ffaf38f401ea	0.812461482273702
10	0xbfd56c294ddaab7c	-0.33472664454409773
11	0xbfe9a5191d238182	-0.8014035767665038
12	0x3fe12f3987d3a04d	0.5370147374023958
13	0xbfecd29d9c626ba2	-0.9007099203475841
14	0x3ff0445dd386b393	1.016691042207843
15	0x3fe82fa46c626ba2	0.7558157078632244
16	0xbfed0bcfb5c37cd0	-0.9076918172903792
17	0x3fe0dae0ec626ba3	0.5267185799487958
18	0xbff0a398663135cf	-1.0399402610668067
19	0xbff0322b463135d9	-1.012248300732031
20	0xbfea34a82c626ba2	-0.8189278475650676
21	0x3fed8a35fb9cbaf3	0.92312144415868
22	0xbfdd27f2c4409a71	-0.4555632511641426
23	0x3fceaafcac92944c	0.23959310938258438
24	0xbfdd40a4585b08d8	-0.45707043293454097
25	0x3fd3d904a6641621	0.31012073754422614
26	0x3fe29adf142d846a	0.5814052003953638
27	0xbfe88f03dc1e570c	-0.7674578952016602
28	0x3fe2c94b6c2d846a	0.5870720970962229
29	0xbfe68a03742d846a	-0.7043473500344934
30	0xbfed4d7cec2d844e	-0.9157089817855508
31	0xbfecf9b9cc2d846a	-0.9054841029975595
32	0x3fe3228de19adc45	0.5979680448862231
33	0x3fc35938475ca6ee	0.15116027340382437
34	0xbfcf83434336bad3	-0.24619332105563405
35	0x3fcfe09f5869274e	0.24904243294650502
36	0xbfd88ed0ec99e0d8	-0.3837168036038867
37	0xbfc3f1a19869274e	-0.1558114999955315
38	0x3fd9a7f5ce3a359e	0.40087647570984497
39	0xbfd08a66fc3493a5	-0.2584474051421302
40	0x3fda183b6c3493a5	0.4077290112202781
41	0x3fcf50ea18692748	0.24465681259089878
42	0xbfc17d61e796d8b2	-0.13663886840885692
43	0x3fac50895b3647d0	0.05530194509914532
44	0x3fa840a05ec107cd	0.04736806065240238
45	0x3fc299698b2b365b	0.14530677123404953
46	0x3fe0daa98539c8b5	0.5266921617569752
47	0xbfac97eb6e19a6fb	-0.05584655493733056
48	0xbfd034fc4a73917e	-0.25323397894523925
49	0x3fcc7d2cabfb5dae	0.22257002255967734
50	0xbfb1fd8329ce45e7	-0.07027454157493872
51	0x3fd7aa07ea73917e	0.3697528638424713
52	0x3fdb8cbeea73916b	0.43046543975494583
53	0x3fd917a8ca73917e	0.39206905146263427
54	0xbfd6eb002dc0b015	-0.35809330432926006
55	0xbfdaf4b9a22ede8f	-0.42118683660690065
56	0x3fb3985871bbeb18	0.0765433576270137
57	0xbfce24059536e12b	-0.2354742983423049
58	0x3fe2cb3f50168b78	0.5873104633541137
59	0x3fe35d5f654db847	0.6051480272851756
60	0xbfe391b4c3f14c66	-0.6115363909724578
61	0x3fda6305aa9b7098	0.41229383145196996
62	0xbfe39086254db847	-0.611392090662556
63	0xbfe213091d4db851	-0.5648236820541205
64	0xbfe2629f254db847	-0.574538777216511
65	0x3fe00f7483523dc1	0.5018866124027498
66	0x3faab0c0213dbc5d	0.05212974935317825
67	0xbfdc084cf2fbbfda	-0.43800662735793383
68	0x3fc413fff5ea0857	0.15686034686592862
69	0xbfca7dfbf833eedd	-0.20696973437576718
70	0xbfd7d066baf5042e	-0.37209480531243144
71	0xbfb0137a91ee0598	-0.06279722273577304
72	0xbfd46ea17af5042e	-0.31925236709145366
73	0x3fd6bbd45af5042e	0.35521420366791545
74	0x3fa2538857a82278	0.03579355306653026
75	0x3fd980fc9af5042e	0.3984977257969743
76	0xbfa1fee65afd294b	-0.035147856337590065
77	0x3fbe039783744d6c	0.11724230727513935
78	0xbfd3890da9b29009	-0.3052400738909005
79	0xbfb092c9088665f2	-0.06473976572160448
80	0xbfce943595ce98c7	-0.23889798941417537
81	0xbfb04f6d77799a0f	-0.0637119690596608
82	0xbf8077d8b15bfbc3	-0.00804108897454892
83	0x3fa653b1910ccbdc	0.04360728164319713
84	0xbfced870e44332f9	-0.24098025460843767
85	0xbfc4e2b14443325f	-0.16316810448769822
86	0x3fce81a71bbccd06	0.23833168844576152
87	0xbfcea9b6267cd37d	-0.23955418471600956
88	0x3fde916a731ee850	0.47762547724017157
89	0xbfbceacb64a7c5b9	-0.11295767981916684
90	0x3fe5771ba023e911	0.670789540075278
91	0xbfdbb27f08ede8f4	-0.43276954528813794
92	0xbfea575e9023e911	-0.8231652083625552
93	0x3fe6c288db7fcd4f	0.7112468993276851
94	0xbfe8da2de023e911	-0.7766332032909152
95	0x3fde7b70b047d231	0.476284191273666
96	0x3fdd7c47e047d22c	0.46071049597165614
97	0x3fe08d162023e911	0.5172224643459079
98	0xbfe1dfd7e9d8c55b	-0.5585746352500495
99	0x3fd70cd1f2f7a602	0.36015747763903516
100	0x3facc9993505c40c	0.05622557422874061
101	0x3fe14352a677efcb	0.5394681216562217
102	0x3fbe9411426fadb2	0.11944682952860466
103	0xbfdd7111ecefdf97	-0.4600262464368767
104	0x3fd9e7f5d1c87df3	0.4047827290214336
105	0xbfdee1ff2cefdf97	-0.4825437487447685
106	0x3fc2208dd9dfbf2b	0.14161847246531897
107	0x3fd6eae98cefdf9f	0.3580879093492459
108	0x3fd79d17ecefdf97	0.3689632238233513
109	0xbfa61ede1ae67892	-0.043204251083112
110	0xbfe2523c7bf3f968	-0.5725386067349918
111	0x3fdbab0a96706a31	0.4323145360118899
112	0xbfd6a66afca91a5e	-0.3539073436153667
113	0x3fc6b6b72e51dbef	0.17745103608805787
114	0x3fe7448fde548d2e	0.7271193830860392
115	0xbfe845d9f89fbbb7	-0.7585267883240395
116	0x3fe06cdb1e548d2e	0.513288077582194
117	0xbfe1eec06e548d2e	-0.5603944926155344
118	0xbfe55faf86548d38	-0.6679303763998297
119	0xbfde08b4fca91a5e	-0.4692814319027202
120	0x3fe8454a2d04b80e	0.7584582213655737

bias f8 [11]
0	0xbfe6b121d8f401ea	-0.709122585045461
1	0x3fe2853dac626ba2	0.578764759720219
2	0x3fe1138e4c2d846a	0.5336371887061777
3	0xbfdbcbaaac3493a5	-0.43430582825595315
4	0xbfc3226594e722f7	-0.14948720713280014
5	0x3fd042374a9b7098	0.2540415028177079
6	0xbfd61ad21af5042e	-0.3453870070698625
7	0xbfc593863bbccd06	-0.16856458584661754
8	0xbfd8dd752047d231	-0.38851669456861077
9	0xbfbc1788b3bf7e52	-0.10973410023097444
10	0x3fe7b293de548d2f	0.7405490248096721

weight f8 [5, 11]
0	0x3fcb0cc6f95b841f	0.2113274304929584
1	0xbfd1252b453e2359	-0.267893617267466
2	0xbfce4efd65304ec8	-0.23678557816366763
3	0x3fc6cd04882084de	0.17813164374187002
4	0x3fc94dfaf87129fa	0.197692271527856
5	0xbfba968e05791489	-0.10385978349320814
6	0x3f93c63813e6eab7	0.019310833182070577
7	0xbfb0d3a32a2c356d	-0.0657293298683805
8	0xbfc178a3c9773f90	-0.1364941343040269
9	0x3fd079f77a9d041c	0.25744425748786326
10	0xbfd9dc62df7af8ba	-0.4040763075280541
11	0xbf8a9bebf4ce7e18	-0.012992709549336331
12	0xbfbc0e84e43fe931	-0.10959654400349873
13	0xbfe0de0974708dd1	-0.5271041177951991
14	0x3fc7e60ad5d5ec32	0.18670783463662272
15	0x3f9327310f04821b	0.01870419172439784
16	0xbfd9894d44bbe1c1	-0.3990052386502861
17	0x3fc40307a48b4ee0	0.15634246382125294
18	0xbfb73b78c5e4108d	-0.09075121718712094
19	0x3fe1fbdc20feaad3	0.5619946140698978
20	0x3fd99e47ae37830c	0.4002856446586953
21	0xbfcd6bba1490a7e6	-0.22985006336358466
22	0xbfe3b2d77b87a69a	-0.6155812657063564
23	0x3fee30cc18e78629	0.9434566961683163
24	0x3fc90c6585e67c60	0.19569081342794714
25	0xbff5c48151910d85	-1.3604748903461268
26	0xbff40d13676a4707	-1.253192333188453
27	0x3ffa9fc0c044f9b6	1.664002181103212
28	0x3fd51e62d835caad	0.32997962106962114
29	0x3fe3e2d151b8fc1a	0.6214377018112629
30	0xbff19d2af0c0b58c	-1.1008710293202482
31	0xbffbdce3b1fed9ce	-1.7414280846547743
32	0x3ffcbfc914926650	1.796822624548799
33	0xbfc668c961ba9f85	-0.17507283470081006
34	0x3fb1907867c173a0	0.0686106923398726
35	0xbfc26c65eddcb2f2	-0.14393304933891887
36	0xbfb9d1fb60969d4b	-0.10086032016862594
37	0x3fb13c662f4cc879	0.06732786803039116
38	0xbfcb949031c8a942	-0.21547129088259892
39	0x3fbe22f240874e48	0.11772073817638173
40	0x3fb2496d5d3a313b	0.07143291021401847
41	0xbfc71b272b3ab972	-0.1805161439019219
42	0x3fb1c998ed781d0b	0.06948238179767345
43	0x3fb38ab0cd18cabf	0.07633500106093559
44	0x3fc1fbf734dce719	0.1405018814201007
45	0xbfbc7cd306b0d8ab	-0.1112796679816223
46	0xbfc3dd7ffc493a68	-0.15519714182524358
47	0x3fd0fbfde64d94a4	0.26538035860569154
48	0x3fde4790d09a1c59	0.4731180226448877
49	0xbfd99c7a51fea44d	-0.4001756478051604
50	0xbfc39c515f624c84	-0.15320794255658055
51	0xbfb504c110bd01a8	-0.08210379274988233
52	0x3f7c7e0875c4bb17	0.006956131979946509
53	0x3fd61a23ea23bb5f	0.345345476772243
54	0xbfc3317957d792dc	-0.14994732655681886

bias f8 [5]
0	0xbfcfa6aa78b0924c	-0.24727373974850975
1	0xbfe1cd473a5f0550	-0.556308378225518
2	0x4000f611b4e542b0	2.120150960203624
3	0xbfd418aba3c067cf	-0.31400576583257317
4	0xbfd6837da6955d96	-0.35177556293407386
